…
    reduce_lr = ReduceLROnPlateau(monitor='val_loss', factor=0.1, patience=2, verbose=0)
    
    return {'early_stop': early_stop, 'save_best': save_best, 'reduce_lr': reduce_lr}
ice_idx = plot_examples(n=examples);
}
{
cell_type": "code
execution_count": 42
metadata": {
scrolled": false
}
outputs": [
{
name": "stdout
output_type": "stream
text": [
____________________________________________________________________________________________________
Layer (type)                     Output Shape          Param #     Connected to                     
====================================================================================================
radar_image (InputLayer)         (None, 75, 75, 3)     0                                            
____________________________________________________________________________________________________
batch_normalization_3 (BatchNorm (None, 75, 75, 3)     12          radar_image[0][0]                
____________________________________________________________________________________________________
conv2d_15 (Conv2D)               (None, 75, 75, 256)   12544       batch_normalization_3[0][0]      
____________________________________________________________________________________________________
max_pooling2d_13 (MaxPooling2D)  (None, 25, 25, 256)   0           conv2d_15[0][0]                  
____________________________________________________________________________________________________
dropout_19 (Dropout)             (None, 25, 25, 256)   0           max_pooling2d_13[0][0]           
____________________________________________________________________________________________________
conv2d_16 (Conv2D)               (None, 25, 25, 256)   590080      dropout_19[0][0]                 
____________________________________________________________________________________________________
max_pooling2d_14 (MaxPooling2D)  (None, 12, 12, 256)   0           conv2d_16[0][0]                  
____________________________________________________________________________________________________
dropout_20 (Dropout)             (None, 12, 12, 256)   0           max_pooling2d_14[0][0]           
____________________________________________________________________________________________________
conv2d_17 (Conv2D)               (None, 12, 12, 128)   295040      dropout_20[0][0]                 
____________________________________________________________________________________________________
max_pooling2d_15 (MaxPooling2D)  (None, 6, 6, 128)     0           conv2d_17[0][0]                  
____________________________________________________________________________________________________
dropout_21 (Dropout)             (None, 6, 6, 128)     0           max_pooling2d_15[0][0]           
____________________________________________________________________________________________________
conv2d_18 (Conv2D)               (None, 6, 6, 128)     147584      dropout_21[0][0]                 
____________________________________________________________________________________________________
max_pooling2d_16 (MaxPooling2D)  (None, 3, 3, 128)     0           conv2d_18[0][0]                  
____________________________________________________________________________________________________
dropout_22 (Dropout)             (None, 3, 3, 128)     0           max_pooling2d_16[0][0]           
____________________________________________________________________________________________________
global_max_pooling2d_4 (GlobalMa (None, 128)           0           dropout_22[0][0]                 
____________________________________________________________________________________________________
aux_input (InputLayer)           (None, 1)             0                                            
____________________________________________________________________________________________________
concatenate_4 (Concatenate)      (None, 129)           0           global_max_pooling2d_4[0][0]     
                                                                   aux_input[0][0]                  
____________________________________________________________________________________________________
batch_normalization_4 (BatchNorm (None, 129)           516         concatenate_4[0][0]              
____________________________________________________________________________________________________
dense_7 (Dense)                  (None, 512)           66560       batch_normalization_4[0][0]      
____________________________________________________________________________________________________
dropout_23 (Dropout)             (None, 512)           0           dense_7[0][0]                    
____________________________________________________________________________________________________
dense_8 (Dense)                  (None, 256)           131328      dropout_23[0][0]                 
____________________________________________________________________________________________________
dropout_24 (Dropout)             (None, 256)           0           dense_8[0][0]                    
____________________________________________________________________________________________________
is_iceberg (Dense)               (None, 1)             257         dropout_24[0][0]                 
====================================================================================================
Total params: 1,243,921
Trainable params: 1,243,657
Non-trainable params: 264
____________________________________________________________________________________________________
]
}
]
icebergs = True
if icebergs:
    compile_kwargs = {'loss': 'binary_crossentropy', 'optimizer': 'adam', 'metrics': ['accuracy']}
…
